security_miles_model/ppo_model/pytorch_model.bin (torch, 17916 bytes, 1 tensors)

v_head.summary.weight f4 [1, 4096]
0	0x3c0a5872	0.008443939
1	0xbbd4cb2e	-0.0064939475
2	0xbb1da432	-0.0024054167
3	0x3c5375f7	0.012906543
4	0xbbbc01c2	-0.0057375142
5	0x3bba4ae1	0.005685196
6	0xbbe45db3	-0.0069691776
7	0xbbbcb8ed	-0.0057593496
8	0x3be384aa	0.006943305
9	0xbbe677b2	-0.0070333118
10	0xbbad8bea	-0.00529622
11	0xbbe2f597	-0.0069262492
12	0xbbd51836	-0.0065031303
13	0xbb5d900d	-0.0033807785
14	0x3c1bb0a9	0.009502568
15	0xbb847193	-0.0040418594
16	0xbba1017f	-0.0049135084
17	0x3c0d56b5	0.00862663
18	0x38894be9	6.5468084e-05
19	0xbbda2066	-0.006656694
20	0xbb811b5e	-0.00394003
21	0x3c2c2b1d	0.010508326
22	0xbbc373dc	-0.0059647392
23	0xba1c3ed1	-0.0005960288
24	0x3b431ddf	0.0029772443
25	0x3b5612b2	0.0032664952
26	0xbc01e128	-0.007927217
27	0xbc2af451	-0.010434226
28	0x3b1dcb1a	0.0024077357
29	0xbb295e97	-0.0025843733
30	0xba41e9da	-0.00073972123
31	0x39ded116	0.0004249892
32	0xbb85b0c4	-0.00407991
33	0x3b0e7b95	0.002174114
34	0x3bf3d44c	0.0074410792
35	0x3a08adab	0.0005213867
36	0xbc28fbba	-0.010313923
37	0x3ba0f396	0.00491185
38	0x3c3cd164	0.011524532
39	0x3b9144a1	0.00443323
40	0xbbbf274e	-0.005833543
41	0x3bc6850b	0.0060583404
42	0xbbfb7cec	-0.007674804
43	0xbb02f648	-0.001998322
44	0x3c15088e	0.009096278
45	0xbbaa2e37	-0.0051934975
46	0x3c22fe9d	0.0099484
47	0x3bbac1f9	0.005699393
48	0xbc39a085	-0.011329775
49	0xbadd5a44	-0.0016887863
50	0x3b636cd6	0.0034702322
51	0x3ba9db9f	0.0051836516
52	0xbab8f71b	-0.0014111729
53	0x3aa1a68f	0.0012332964
54	0x3bcff241	0.0063460176
55	0x3a0dd7a5	0.00054108567
56	0xbc26d2cf	-0.010182097
57	0x3bd329d4	0.0064441953
58	0xbc456b3c	-0.012049492
59	0x3c143f7d	0.00904834
60	0xba9c2966	-0.0011914193
61	0xbac6fa0a	-0.0015180719
62	0x3b7a9e6f	0.0038241406
63	0xb9d8644b	-0.00041273455
64	0xbbb8aed1	-0.005636074
65	0x3c292132	0.010322856
66	0x3b86792b	0.0041038
67	0xbb0d886d	-0.0021596209
68	0x3a80660c	0.0009796037
69	0x3bf2d41d	0.00741054
70	0xbb86b63a	-0.0041110786
71	0xbb98b285	-0.004659953
72	0x3b89d24f	0.004205979
73	0xbb91c071	-0.0044479896
74	0x3c343e6b	0.01100121
75	0x3c46bcb5	0.012129952
76	0xbb7ce342	-0.0038587605
77	0xbb7e0bd5	-0.0038764377
78	0xba31f128	-0.0006787949
79	0xbadbbd9c	-0.0016764882
80	0xbb972f8e	-0.0046138233
81	0x3b3b6f99	0.0028600453
82	0xbc296f2b	-0.010341446
83	0xbb9d2291	-0.0047953804
84	0x3aa3df32	0.001250243
85	0x3c0d03a1	0.008606822
86	0xb9b889f3	-0.00035197995
87	0x3bf55a05	0.007487538
88	0x3b5d10d9	0.0033731966
89	0xbbc6a8e9	-0.006062616
90	0x3c27abb4	0.010233808
91	0x3bdbcf9c	0.0067080986
92	0xbb499ed1	-0.0030764828
93	0xbc5eb3f0	-0.013592705
94	0xba87a883	-0.0010349903
95	0xbb099d11	-0.002099816
96	0x3b150a2f	0.0022741666
97	0xbbda8123	-0.0066682263
98	0xb91585bf	-0.00014259572
99	0x3b8368b1	0.004010283
100	0xbbc76ae1	-0.006085739
101	0x3bc4b1a6	0.0060026227
102	0xbb658a5f	-0.0035025103
103	0x3bc1c048	0.0059128143
104	0x3bea715a	0.007154626
105	0xbaecdc48	-0.001807102
106	0x3b2fe979	0.0026842041
107	0xbb6aa9b0	-0.0035806708
108	0x3a6cf4ef	0.00090391835
109	0xbc11c18b	-0.008896242
110	0x3b89f1b4	0.0042097215
111	0x3c4b81e1	0.012421102
112	0x3ab7af48	0.001401403
113	0xbb0d48c7	-0.0021558271
114	0xbb840088	-0.0040283836
115	0xbb26c4e3	-0.0025446943
116	0xbb95f257	-0.0045760083
117	0xbbd4ca15	-0.0064938166
118	0x3b33bb91	0.002742503
119	0xbbc3d56c	-0.0059763696
120	0xba72e4cb	-0.000926566
121	0x3a767e7e	0.0009403004
122	0xbc25416f	-0.010086401
123	0xbc327b67	-0.010893679
124	0xbba541ea	-0.005043258
125	0x3bb1879f	0.0054177786
126	0x3ac35911	0.0014903863
127	0xbbd2adb3	-0.006429398
128	0x3c40bdd3	0.011764008
129	0x3b56c682	0.0032772128
130	0xbbbed5b9	-0.0058238176
131	0xbbbe5fd2	-0.0058097625
132	0xbbaf4d38	-0.0053497814
133	0xbacdca74	-0.0015700595
134	0x3be41eac	0.006961664
135	0x3a8036b3	0.0009781927
136	0x3b82585f	0.00397782
137	0xbb993354	-0.0046753082
138	0x3befa98f	0.007313914
139	0x3bf5b444	0.007498296
140	0xbbc0fb11	-0.0058893044
141	0xbc34c5a5	-0.01103345
142	0xbbbd415b	-0.0057756132
143	0xbb1b4727	-0.0023693533
144	0x3b9e21ca	0.0048258053
145	0xbc3af367	-0.011410571
146	0x3bb37321	0.005476371
147	0x3c088944	0.008333508
148	0xbc0593dc	-0.008152928
149	0xbb4a961b	-0.0030912224
150	0xbbbd4a41	-0.005776674
151	0xbb7856aa	-0.0037893453
152	0xbb91eefc	-0.004453538
153	0x3c15dfc4	0.009147588
154	0xbbf6f7df	-0.0075368728
155	0x3c07477a	0.008256787
156	0xbae27eaf	-0.0017280186
157	0x3be68e13	0.0070359795
158	0x3b1a53ca	0.0023548477
159	0xba988152	-0.001163522
160	0x39e96e13	0.00044523235
161	0xbc00066b	-0.00781403
162	0xbc4437e0	-0.011976212
163	0xba18ba91	-0.00058261404
164	0x3a787820	0.0009478349
165	0x3bb5d04e	0.0055485135
166	0xbc053308	-0.008129843
167	0xbb24f89c	-0.0025172597
168	0x3c10ba5b	0.008833493
169	0xbb9f345f	-0.004858538
170	0x3ba0bdfe	0.0049054613
171	0x3a4dd648	0.000785206
172	0x3bf06063	0.007335709
173	0xba82d3ce	-0.0009981336
174	0x3ab2603f	0.0013609006
175	0x3b6b0e8e	0.003586683
176	0xbc3abd9e	-0.011397747
177	0x3b77bcdc	0.0037801778
178	0xbb4502e4	-0.0030061537
179	0x3b91c3ef	0.004448406
180	0xbb6a5dd6	-0.0035761497
181	0xbabc364f	-0.0014359447
182	0xbc43a1b7	-0.011940411
183	0x3b16b2e0	0.0022994801
184	0x3c15deb5	0.009147336
185	0xbbb39269	-0.0054801
186	0xba2ca7b7	-0.0006586271
187	0xbbcd4acd	-0.0062650205
188	0xbbb140d7	-0.005409341
189	0xbc2da7b6	-0.010599067
190	0xbc1232ef	-0.008923276
191	0xbc392496	-0.011300227
192	0x3ab658b5	0.0013911935
193	0xbb91b2ed	-0.0044463784
194	0xbbdbc24f	-0.006706513
195	0xbc3361db	-0.0109486235
196	0xbc3869cb	-0.011255692
197	0xbbb8a927	-0.005635399
198	0xbbde452e	-0.006783149
199	0xbc41d665	-0.011830901
200	0xbc259563	-0.010106417
201	0x3b8c0d92	0.0042740786
202	0xbb2c98b8	-0.0026336145
203	0x3b0515e1	0.002030723
204	0x3bbcdb16	0.0057634218
205	0x3af1de99	0.001845318
206	0xbbe60783	-0.0070199384
207	0x3ab85a1b	0.001406494
208	0xbb24f3ef	-0.002516981
209	0xbb48a3c6	-0.0030615195
210	0xb991b05f	-0.00027787962
211	0xbb9469ab	-0.004529198
212	0x3a284181	0.0006418452
213	0x3b6d5243	0.0036212362
214	0x3c08f500	0.008359194
215	0x3b6cc28c	0.00361267
216	0xbc314992	-0.010820763
217	0x3abaee9a	0.0014261783
218	0x3b4762cb	0.0030423875
219	0xbbc925eb	-0.0061385534
220	0xbbfaaecb	-0.0076502315
221	0x3c4be73a	0.012445265
222	0xbb0deb15	-0.0021655012
223	0xbb9b3b20	-0.004737273
224	0xbbc4cc40	-0.006005794
225	0xbbaefa77	-0.0053399163
226	0xbc2fe418	-0.010735534
227	0xbba0f7c5	-0.004912349
228	0xbb989887	-0.0046568546
229	0xbc32a1fe	-0.01090288
230	0xbb7068bc	-0.003668352
231	0xbaed9206	-0.0018125183
232	0xbbab6f28	-0.0052317567
233	0xbbd02103	-0.0063515916
234	0x3bef40cb	0.007301425
235	0xbbcceb2c	-0.0062536206
236	0xbbc1ac6b	-0.0059104464
237	0xbc0562c9	-0.008141228
238	0xbad3ebc0	-0.0016168281
239	0xbc66333d	-0.014050302
240	0xbba663fb	-0.0050778366
241	0x3bc92319	0.006138217
242	0xbc11c36b	-0.008896689
243	0xbb7173d0	-0.0036842711
244	0xbbefe740	-0.0073212683
245	0xbbffc597	-0.007805537
246	0xbbb4d6ba	-0.0055187615
247	0xbb03b0e4	-0.0020094449
248	0xbb99317c	-0.0046750885
249	0xbabc3ee3	-0.0014362003
250	0xbbade2ba	-0.005306569
251	0x3c0a6eba	0.008449251
252	0xbc2a1f97	-0.010383508
253	0xbb8084ce	-0.0039220816
254	0x3b33798a	0.0027385675
255	0x3bf15853	0.0073652654
