security_miles_model/ppo_model/pytorch_model.bin (torch, 17916 bytes, 1 tensors)

v_head.summary.weight f4 [1, 4096]
0	0xbb9e58aa	-0.004832347
1	0x3c46bdf7	0.012130252
2	0x3c223655	0.009900649
3	0xbb9d9634	-0.0048091654
4	0x3b50477e	0.0031780894
5	0x3adebf0a	0.001699419
6	0x3bda8ff4	0.0066699926
7	0xbc69bb8b	-0.014265905
8	0xbbb2807e	-0.0054474464
9	0x3b739431	0.0037167186
10	0xbb8bba1e	-0.0042641303
11	0x3c09c421	0.008408577
12	0x3be7f76c	0.0070790555
13	0xbbd82270	-0.006595902
14	0xbc0d14be	-0.008610902
15	0x3c03e4c6	0.008050149
16	0xbc03d248	-0.00804574
17	0xbc608bdc	-0.01370522
18	0xbbfb0ca3	-0.0076614185
19	0xbc760049	-0.015014716
20	0x3c55d573	0.013051379
21	0x3b3ccc70	0.0028808378
22	0x3a207b75	0.0006121912
23	0xbc4642c4	-0.012100879
24	0xbaf63bd9	-0.0018786147
25	0x3b5b34b2	0.0033448157
26	0xbc457c1f	-0.012053519
27	0x3b991f41	0.004672915
28	0x3c5c93a3	0.013462934
29	0x3b05cb1d	0.0020415254
30	0x3afcf1c0	0.0019298121
31	0x3c52cb4a	0.012865851
32	0xbb19b4e8	-0.0023453776
33	0x3c0609d5	0.008181055
34	0xbbc0451f	-0.005867615
35	0x3c537229	0.012905636
36	0xbc58828e	-0.01321472
37	0xbc7004bf	-0.014649569
38	0x3c7720b0	0.015083477
39	0xbbfc3369	-0.0076965583
40	0xbaad9b80	-0.0013245195
41	0xbbf23500	-0.007391572
42	0xbc0d95a9	-0.008641639
43	0x3bf69cee	0.0075260317
44	0x3c01e6bb	0.007928546
45	0xba3be41b	-0.0007167474
46	0x3c0ca3bd	0.00858396
47	0x3c525464	0.012837503
48	0x3bb7ca22	0.005608813
49	0xbb934602	-0.0044944296
50	0xba3162ca	-0.0006766735
51	0xbc30b7cc	-0.010786008
52	0x3c49a26c	0.012306791
53	0x3c29b257	0.010357461
54	0x3bd5066b	0.006501009
55	0x3bd1bb75	0.0064005204
56	0x3c4ed816	0.012624761
57	0x3c681e4d	0.0141673805
58	0x3c69b33a	0.014263922
59	0xbb2846a3	-0.0025676868
60	0xbc66cdc3	-0.014087143
61	0x3c1b9280	0.009495378
62	0x3be7def1	0.0070761372
63	0xbc524173	-0.012832987
64	0xbc3d0e6f	-0.011539086
65	0x3c3e6de0	0.011622876
66	0x3c0dde95	0.008659025
67	0xbae7c954	-0.0017683902
68	0xbc3aeb9e	-0.011408715
69	0x3c26eddc	0.010188546
70	0xbc387638	-0.011258654
71	0xbbf90e11	-0.007600554
72	0x3bb619c0	0.005557269
73	0x3c44ff6a	0.012023786
74	0x3aa8d78a	0.0012881618
75	0xbbf91cbe	-0.0076023033
76	0xbc0a9564	-0.008458469
77	0xbc34eb66	-0.0110424515
78	0xba40907d	-0.0007345749
79	0xbbe4b66e	-0.006979755
80	0xbc09fb2e	-0.008421702
81	0xb9850f3d	-0.0002537909
82	0x3bca90aa	0.006181796
83	0x39af810c	0.00033474748
84	0x3c6541ad	0.013992709
85	0x3c58e793	0.013238805
86	0x3c09ff87	0.008422739
87	0xb9c8febb	-0.00038336762
88	0x3c655958	0.013998352
89	0x3b59fad1	0.003326107
90	0xbc2135f1	-0.009839521
91	0x3a73bdb6	0.00092979835
92	0xbb9ee698	-0.0048492663
93	0xbc791430	-0.015202567
94	0x3c49a94b	0.012308429
95	0xbc630beb	-0.013857822
96	0xbc7187eb	-0.014741878
97	0xbbc585c4	-0.006027909
98	0xbb8e3d7a	-0.0043408247
99	0xbc02999a	-0.007971192
100	0x3c4dc2d3	0.012558657
101	0x3b739736	0.0037168986
102	0x3b8c8b75	0.0042890855
103	0x3b7752a7	0.0037738474
104	0xbc65a83d	-0.014017162
105	0x35e6440c	1.715614e-06
106	0xbc6b168d	-0.014348638
107	0x3b1635b4	0.0022920193
108	0xbbd75bed	-0.0065722377
109	0xbad46c45	-0.0016206583
110	0xbc3afcaf	-0.0114127835
111	0xba15a222	-0.00057080586
112	0xbbbf27b9	-0.0058335927
113	0xbc75a97f	-0.014994024
114	0xbb947bd0	-0.004531361
115	0x3ba656f2	0.0050762827
116	0xbab5fc47	-0.0013884389
117	0xbb3e948a	-0.0029080235
118	0x3bcc43b4	0.006233657
119	0xbc42af6e	-0.011882646
120	0xbc14f810	-0.009092346
121	0x3bb3063f	0.005463391
122	0xbc5e6bde	-0.013575522
123	0x3c3c501d	0.01149371
124	0x3c563939	0.013075166
125	0x3ba94282	0.005165399
126	0x3c15bb22	0.009138854
127	0xb89cfe3f	-7.486017e-05
128	0xbc742879	-0.014902228
129	0x3bbee8cf	0.005826093
130	0xbc2ee3b9	-0.0106744105
131	0x3bf86e65	0.0075815194
132	0x3ab04347	0.0013447785
133	0x3c6419fe	0.013922213
134	0xbc3a79eb	-0.011381607
135	0x3bbe270f	0.005802996
136	0x3c3cc9ff	0.011522769
137	0xbc54a6d0	-0.012979224
138	0xbb9064ea	-0.004406561
139	0x3b01c0d6	0.0019798777
140	0x3c2617fa	0.010137552
141	0xbaf36b0f	-0.0018571335
142	0x3b8836aa	0.004156907
143	0x3b3bf7dc	0.0028681671
144	0x3c678225	0.01413015
145	0x3ba31649	0.004977022
146	0xbb307d5b	-0.0026930186
147	0x3c417a8a	0.011809001
148	0x3af6b4d2	0.0018822199
149	0x3bdcf139	0.006742623
150	0x3b49abcc	0.0030772565
151	0x374e79f2	1.2306949e-05
152	0xbc139560	-0.009007782
153	0xbc0d451f	-0.008622437
154	0x3b9a2648	0.0047042705
155	0xbc210a93	-0.009829181
156	0x3c4673eb	0.012112598
157	0x3bb94249	0.0056536538
158	0x3a01225a	0.0004926078
159	0xbc17c478	-0.00926315
160	0x3a6a634b	0.00089411874
161	0x3c0ee95e	0.008722631
162	0xbb652c6d	-0.0034969107
163	0x3a979a3c	0.0011566351
164	0x3bd32823	0.0064439937
165	0xbc42e0ac	-0.011894386
166	0x3ba1e6a5	0.004940825
167	0x3c05a14e	0.008156134
168	0x3c424217	0.011856577
169	0x3a8e2c55	0.0010846952
170	0x3c29d3a4	0.0103654
171	0xbc011f91	-0.007881061
172	0xbc5c73f1	-0.013455377
173	0xbc6f6973	-0.014612543
174	0xbc748c8b	-0.014926086
175	0x3a9041d4	0.0011005946
176	0x3c63f679	0.013913744
177	0x3c53bd76	0.012923589
178	0x3bd3b465	0.0064607137
179	0xbc7215bc	-0.01477569
180	0x3c775b00	0.01509738
181	0xbba054a1	-0.004892901
182	0xbc1dfb23	-0.009642395
183	0xbc738b51	-0.014864759
184	0x3c3f0243	0.011658254
185	0x3c607cb4	0.013701607
186	0xbb8497e1	-0.0040464257
187	0x3c7ad4de	0.015309541
188	0xbba7080e	-0.0050973957
189	0xbc20f2b9	-0.009823495
190	0x3bd6a391	0.0065502604
191	0x3c3f4897	0.011675022
192	0xbbf8f686	-0.0075977473
193	0x3b88568f	0.004160709
194	0xbbdc64e3	-0.006725894
195	0x3b68b5b5	0.0035508696
196	0xbc5dd711	-0.013540045
197	0xbc054020	-0.008132964
198	0x3b9465f5	0.004528756
199	0xbbcf19d6	-0.0063202186
200	0xbc6ffee0	-0.014648169
201	0x3c0371a3	0.008022699
202	0xba16c2dd	-0.0005751083
203	0x3b22ecb8	0.0024860334
204	0xb9322cdb	-0.00016992113
205	0xbc7087d1	-0.014680819
206	0x3c39a810	0.011331573
207	0x3c05dea1	0.008170755
208	0x3c4af12f	0.012386604
209	0x3c1f57eb	0.009725551
210	0x3c424607	0.011857516
211	0x3c142882	0.009042861
212	0x3be35de1	0.0069386815
213	0x3c165cb9	0.00917738
214	0x3b00eb0f	0.0019671356
215	0xbc415a60	-0.011801332
216	0xbc34e057	-0.011039815
217	0x3c1d8cc2	0.009616079
218	0x3c6c1d37	0.014411262
219	0xbc509dcd	-0.012732935
220	0xbacec1c8	-0.0015774304
221	0x3c6f6ca7	0.014613307
222	0xbbb324d7	-0.005467038
223	0xbc2d3c38	-0.010573439
224	0x3bcc911d	0.006242885
225	0xbc0e72e7	-0.008694387
226	0xbb577b0d	-0.003287974
227	0xbaa2e51a	-0.0012427897
228	0xbc772af9	-0.015085929
229	0xbc11883b	-0.0088825775
230	0x3bfa47e5	0.007637965
231	0xbb40492c	-0.002934049
232	0xbb7f3082	-0.0038938825
233	0xbc652f64	-0.01398835
234	0x3b813c64	0.0039439667
235	0x3bcaef40	0.0061930716
236	0xbc2e8b70	-0.010653362
237	0x3ab77141	0.0013995544
238	0x3c1189d2	0.008882957
239	0xbc21adbe	-0.0098680835
240	0x3b383b88	0.0028111655
241	0x3c518851	0.012788848
242	0x3b4fe1a7	0.0031720193
243	0x3b2900a6	0.002578774
244	0x3c32377b	0.010877485
245	0xbc0073c2	-0.007840099
246	0xbb3ee68b	-0.0029129114
247	0xbb3fff30	-0.002929639
248	0x3870fc2b	5.745531e-05
249	0xbc515cbd	-0.012778458
250	0x3a2e4a38	0.00066486327
251	0xbc6faa1d	-0.0146279605
252	0x3c319b29	0.010840216
253	0xbbdc5eab	-0.0067251525
254	0xbab64d42	-0.0013908523
255	0x3c5d1b03	0.01349521
